Model: "model"
_________________________________________________________________
Layer (type)                 Output Shape              Param #   
=================================================================
input_1 (InputLayer)         [(None, 2, 174, 1)]       0         
_________________________________________________________________
separable_conv2d (SeparableC (None, 2, 174, 32)        73        
_________________________________________________________________
dropout (Dropout)            (None, 2, 174, 32)        0         
_________________________________________________________________
max_pooling2d (MaxPooling2D) (None, 1, 87, 32)         0         
_________________________________________________________________
separable_conv2d_1 (Separabl (None, 1, 87, 16)         816       
_________________________________________________________________
dropout_1 (Dropout)          (None, 1, 87, 16)         0         
_________________________________________________________________
batch_normalization (BatchNo (None, 1, 87, 16)         64        
_________________________________________________________________
flatten (Flatten)            (None, 1392)              0         
_________________________________________________________________
dropout_2 (Dropout)          (None, 1392)              0         
_________________________________________________________________
dense (Dense)                (None, 8)                 11144     
_________________________________________________________________
dense_1 (Dense)              (None, 2)                 18        
=================================================================
Total params: 12,115
Trainable params: 12,083
Non-trainable params: 32
_________________________________________________________________
Train on 14873 samples, validate on 3719 samples
Epoch 1/100
  216/14873 [..............................] - ETA: 1:25 - loss: 0.6940 - acc: 0.5069
…
